…
Epoch [10/15] Time: 69.00s; Loss: 1.4781; Accuracy: 0.6117; ValLoss: 3.3382; ValAccuracy: 0.3367
Epoch [11/15] Time: 68.63s; Loss: 1.3051; Accuracy: 0.6482; ValLoss: 3.5068; ValAccuracy: 0.3416
Epoch [12/15] Time: 69.17s; Loss: 1.1627; Accuracy: 0.6842; ValLoss: 3.6889; ValAccuracy: 0.3361
Epoch [13/15] Time: 68.99s; Loss: 1.0413; Accuracy: 0.7160; ValLoss: 3.8418; ValAccuracy: 0.3351
Epoch [14/15] Time: 69.09s; Loss: 0.9377; Accuracy: 0.7419; ValLoss: 3.9062; ValAccuracy: 0.3341
Epoch [15/15] Time: 69.73s; Loss: 0.8349; Accuracy: 0.7661; ValLoss: 4.1048; ValAccuracy: 0.3378

TEST Loss: 4.1102; Accuracy: 0.3343

Sequential(
  (0): Sequential(
    (0): Conv2d(3, 64, kernel_size=(3, 3), stride=(1, 1), padding=(1, 1))
    (1): ReLU()
    (2): BatchNorm2d(64, eps=1e-05, momentum=0.1, affine=True, track_running_stats=True)
    (3): MaxPool2d(kernel_size=(2, 2), stride=(2, 2), padding=0, dilation=1, ceil_mode=False)
  )
  (1): Sequential(
    (0): Conv2d(64, 128, kernel_size=(3, 3), stride=(1, 1), padding=(1, 1))
    (1): ReLU()
    (2): BatchNorm2d(128, eps=1e-05, momentum=0.1, affine=True, track_running_stats=True)
    (3): MaxPool2d(kernel_size=(2, 2), stride=(2, 2), padding=0, dilation=1, ceil_mode=False)
  )
  (2): Sequential(
    (0): Conv2d(128, 256, kernel_size=(3, 3), stride=(1, 1), padding=(1, 1))
    (1): ReLU()
    (2): BatchNorm2d(256, eps=1e-05, momentum=0.1, affine=True, track_running_stats=True)
    (3): MaxPool2d(kernel_size=(2, 2), stride=(2, 2), padding=0, dilation=1, ceil_mode=False)
  )
  (3): Sequential(
    (0): Conv2d(256, 512, kernel_size=(3, 3), stride=(1, 1), padding=(1, 1))
    (1): ReLU()
    (2): BatchNorm2d(512, eps=1e-05, momentum=0.1, affine=True, track_running_stats=True)
    (3): MaxPool2d(kernel_size=(2, 2), stride=(2, 2), padding=0, dilation=1, ceil_mode=False)
  )
  (4): Flatten()
  (5): Linear(in_features=8192, out_features=1024, bias=True)
  (6): ReLU(inplace=True)
  (7): Linear(in_features=1024, out_features=512, bias=True)
  (8): ReLU(inplace=True)
  (9): Linear(in_features=512, out_features=200, bias=True)
  (10): LogSoftmax()
)
