…
Epoch [25/50] Time: 67.39s; Loss: 1.7603; Accuracy: 0.5431; ValLoss: 2.7276; ValAccuracy: 0.3979
Epoch [26/50] Time: 66.28s; Loss: 1.7071; Accuracy: 0.5541; ValLoss: 2.7737; ValAccuracy: 0.3980
Epoch [27/50] Time: 66.28s; Loss: 1.6497; Accuracy: 0.5675; ValLoss: 2.7862; ValAccuracy: 0.3966
Epoch [28/50] Time: 66.41s; Loss: 1.6062; Accuracy: 0.5734; ValLoss: 2.7818; ValAccuracy: 0.3984
Epoch [29/50] Time: 66.29s; Loss: 1.5511; Accuracy: 0.5888; ValLoss: 2.7742; ValAccuracy: 0.3994
Epoch [30/50] Time: 67.23s; Loss: 1.5142; Accuracy: 0.5972; ValLoss: 2.7898; ValAccuracy: 0.4015

TEST Loss: 2.7831; Accuracy: 0.4028

Sequential(
  (0): Sequential(
    (0): Conv2d(3, 64, kernel_size=(3, 3), stride=(1, 1), padding=(1, 1))
    (1): ReLU()
    (2): BatchNorm2d(64, eps=1e-05, momentum=0.1, affine=True, track_running_stats=True)
    (3): MaxPool2d(kernel_size=(2, 2), stride=(2, 2), padding=0, dilation=1, ceil_mode=False)
  )
  (1): Sequential(
    (0): Conv2d(64, 128, kernel_size=(3, 3), stride=(1, 1), padding=(1, 1))
    (1): ReLU()
    (2): BatchNorm2d(128, eps=1e-05, momentum=0.1, affine=True, track_running_stats=True)
    (3): MaxPool2d(kernel_size=(2, 2), stride=(2, 2), padding=0, dilation=1, ceil_mode=False)
  )
  (2): Dropout(p=0.2, inplace=False)
  (3): Sequential(
    (0): Conv2d(128, 256, kernel_size=(3, 3), stride=(1, 1), padding=(1, 1))
    (1): ReLU()
    (2): BatchNorm2d(256, eps=1e-05, momentum=0.1, affine=True, track_running_stats=True)
    (3): MaxPool2d(kernel_size=(2, 2), stride=(2, 2), padding=0, dilation=1, ceil_mode=False)
  )
  (4): Sequential(
    (0): Conv2d(256, 512, kernel_size=(3, 3), stride=(1, 1), padding=(1, 1))
    (1): ReLU()
    (2): BatchNorm2d(512, eps=1e-05, momentum=0.1, affine=True, track_running_stats=True)
    (3): MaxPool2d(kernel_size=(2, 2), stride=(2, 2), padding=0, dilation=1, ceil_mode=False)
  )
  (5): Flatten()
  (6): Dropout(p=0.2, inplace=False)
  (7): Linear(in_features=8192, out_features=1024, bias=True)
  (8): ReLU()
  (9): Dropout(p=0.2, inplace=False)
  (10): Linear(in_features=1024, out_features=200, bias=True)
  (11): LogSoftmax()
)